results/lstm_model.pth (torch, 230965 bytes, 10 tensors)

lstm.weight_ih_l0 f4 [256, 2]
0	0x3e5c24d4	0.21498424
1	0xbd00bbda	-0.03142915
2	0xbef293a3	-0.47378263
3	0x3e457e9a	0.19286576
4	0xbe9ea0a2	-0.30981928
5	0x3e63cefc	0.22246927
6	0xbd7a99e6	-0.061181925
7	0x3e5eac7f	0.2174549
8	0x3e8d7dc3	0.2763501
9	0xbe6558a4	-0.22397095
10	0x3ed141df	0.40870568
11	0x3d97cf3f	0.07412576
12	0xbdf54873	-0.11976709
13	0xbeb647c6	-0.35601634
14	0x3ddb5fdf	0.10711645
15	0x3e2daa82	0.16959575
16	0xbbbc74d5	-0.005751232
17	0x3caaf71f	0.02086979
18	0xbe9dada2	-0.30796534
19	0x3cb77810	0.022396117
20	0xbe90f74c	-0.28313673
21	0xbe89a2c7	-0.26882002
22	0x3f3d62e9	0.7397905
23	0x3e973c50	0.29538202
24	0xbe9f6fa3	-0.3113986
25	0xbe209f5c	-0.15685791
26	0xbefb0922	-0.49030405
27	0xbe1d45ef	-0.15358709
28	0xbe778296	-0.24170908
29	0x3dcd13bf	0.10013532
30	0x3f240289	0.6406637
31	0xbe8c926a	-0.27455455
32	0xbe54dde7	-0.20787774
33	0x3c4aa2c4	0.012367908
34	0x3c219a16	0.009863397
35	0x3f1ab8f5	0.6043847
36	0xbcde06fe	-0.027102944
37	0x3ed132ca	0.4085906
38	0x3eb19cbf	0.346899
39	0xbeafeb9e	-0.3435945
40	0x3e044f6e	0.12920925
41	0x3e2fc46c	0.17164773
42	0xbe42c4eb	-0.1902043
43	0xbd7a1194	-0.06105192
44	0x3eb26ae9	0.3484719
45	0xbdd59ee0	-0.104306936
46	0x3ebb4505	0.36576095
47	0x3e9a76fc	0.30168903
48	0x3e183ba9	0.14866509
49	0xbeb03bb5	-0.34420553
50	0xbe828071	-0.25488618
51	0xbd1dff26	-0.038573407
52	0xbef5dd51	-0.48020414
53	0x3eb241b1	0.34815744
54	0xbe9abb8e	-0.30221218
55	0x3c9190c7	0.01776923
56	0x3d01bedd	0.031676162
57	0x3ea8f532	0.3299957
58	0xbdf724b8	-0.120675504
59	0xbe3c3054	-0.1837781
60	0xbdb9d64a	-0.090740755
61	0x3e230c30	0.15922618
62	0xbe50a656	-0.20375952
63	0xbdc23db2	-0.09484424
64	0x3e69ea4d	0.22843285
65	0xbe057570	-0.1303308
66	0x3de5f4ae	0.112283096
67	0x3c5719e5	0.013128732
68	0xbee24b4f	-0.4419808
69	0xbe9ffe79	-0.31248835
70	0xbd1cd66c	-0.038290426
71	0x3e8533b2	0.26016003
72	0x3f1e97a7	0.61950153
73	0xbd6e8948	-0.05823639
74	0xbf03edb5	-0.5153459
75	0xbdd1de3a	-0.102474645
76	0xbea4ff49	-0.32226017
77	0x3d9381f2	0.072025195
78	0x3eec475e	0.461482
79	0xbe3cce6a	-0.18438116
80	0xbf090cf3	-0.53535384
81	0xbebff692	-0.37492806
82	0xbe0c51fc	-0.1370315
83	0xbe5990db	-0.21246664
84	0x3ec7159e	0.3888368
85	0x3d963e19	0.07336063
86	0x3e4e6dac	0.20159024
87	0xbd3966dc	-0.04526411
88	0xbedb498b	-0.42829546
89	0xbd98aa93	-0.074544095
90	0xbec163f0	-0.3777156
91	0x3e58ed4b	0.2118427
92	0x3f20b988	0.627831
93	0xbe9954b9	-0.2994745
94	0x3c4ebb7a	0.01261794
95	0xbdfc86db	-0.12330409
96	0x3e1a67e9	0.15078701
97	0xbe688f8b	-0.22711007
98	0xbf084111	-0.53224283
99	0x3e102f55	0.14080556
100	0x3df35e41	0.11883212
101	0x3dcad5ed	0.09904084
102	0xbe632855	-0.22183354
103	0xbe15e530	-0.1463821
104	0x3ef338fc	0.47504413
105	0x3eb0c0b0	0.3452201
106	0xbf04fec5	-0.5195125
107	0xbd93ac5d	-0.0721061
108	0xbeb30887	-0.34967443
109	0xbe343596	-0.17598566
110	0x3f54ea2c	0.8316982
111	0xbe549349	-0.2075931
112	0xbdfc29bd	-0.123126484
113	0xbde72b19	-0.11287517
114	0xbec01dfb	-0.37522873
115	0xbba294af	-0.004961572
116	0xbe1fe996	-0.1561645
117	0xbe20cdf6	-0.15703568
118	0xbe906ef3	-0.28209648
119	0xbdfa3075	-0.12216274
120	0x3e33890e	0.17532751
121	0x3e730627	0.23732816
122	0xbe92db36	-0.2868287
123	0x3ea66106	0.32495898
124	0xbf2a7f8c	-0.6660087
125	0x3dedff3d	0.116209485
126	0xbf1d458f	-0.61434263
127	0xbe1d9c3b	-0.15391628
128	0x3e37dd51	0.1795552
129	0xbde375e4	-0.1110647
130	0x3ea354dd	0.31900683
131	0xbde6fccb	-0.11278685
132	0xbf1bcc2a	-0.60858405
133	0x3e3dac63	0.18522792
134	0xbed20581	-0.41019824
135	0xbe0dabd4	-0.13835078
136	0xbedccb87	-0.4312403
137	0xbed5a82a	-0.41729861
138	0x3e907183	0.28211603
139	0xbeb238c5	-0.34808937
140	0xbf043571	-0.51644045
141	0xbedf0d4c	-0.43564832
142	0x3ed8ad33	0.4231964
143	0xbd863baa	-0.06554349
144	0xbea91181	-0.33021167
145	0xbe94159f	-0.28922746
146	0xbeaa3686	-0.33244723
147	0x3e4aaabd	0.19791694
148	0xbd30095d	-0.04297768
149	0xbed3c157	-0.41358444
150	0xbe2e2e21	-0.17009784
151	0x3df6cfb1	0.12051333
152	0xbe304178	-0.17212474
153	0xbed77b4e	-0.42086262
154	0x3c9a7c25	0.018858025
155	0xbe7d7384	-0.24751097
156	0xbecd9760	-0.40154552
157	0xbd1692bb	-0.036761027
158	0x3ee7cbe0	0.45272732
159	0x3cc36948	0.023853913
160	0x3e1a45cb	0.15065686
161	0xbeb24881	-0.3482094
162	0xbec8f399	-0.3924835
163	0xbe5af6eb	-0.21383254
164	0xbe8469ce	-0.25861973
165	0x3e3d94d7	0.18513809
166	0x3ea0ada7	0.31382486
167	0x3d8cecb9	0.06881089
168	0x3eaced41	0.3377476
169	0xbe972aab	-0.2952474
170	0x3d564b9f	0.05231821
171	0xbee66e15	-0.4500586
172	0xbed7891d	-0.42096797
173	0x3e349eba	0.17638674
174	0x3d3528b0	0.044228256
175	0x3eac5c1a	0.33664018
176	0xbece2809	-0.4026492
177	0x3ededd52	0.4352823
178	0x3eef2cf3	0.4671398
179	0xbe8942da	-0.26808816
180	0xbc88c7cc	-0.016696833
181	0x3cf3fb3a	0.02978288
182	0x3e9f3bc8	0.31100297
183	0xbe81feb6	-0.25389642
184	0x3da01677	0.07816785
185	0x3ef888fd	0.48542014
186	0x3d3c80bb	0.046021204
187	0xbe3d26e7	-0.18471871
188	0xbe39b3d7	-0.1813501
189	0xbd1d6bf7	-0.03843304
190	0xbc84080d	-0.01611712
191	0xbdc73656	-0.09727161
192	0x3f09f078	0.5388255
193	0x3e31c79e	0.17361304
194	0xbdfc8c41	-0.12331439
195	0x3ed46476	0.41482896
196	0xbace8b0e	-0.0015757994
197	0x3d1267d2	0.035743542
198	0xbbc2d035	-0.0059452304
199	0x3d9c7fb2	0.076415434
200	0xbdbb1f64	-0.09136847
201	0x3e70f61d	0.23531385
202	0x3ed4a093	0.41528758
203	0x3c276476	0.010216823
204	0xbe92f2d5	-0.2870089
205	0xbe6068f2	-0.21915033
206	0x3f04bd6f	0.5185155
207	0xbe8919f0	-0.267776
208	0x3edc3f8d	0.43017235
209	0x3cfe411f	0.031036912
210	0xbe9f44be	-0.31107134
211	0xbf1426c5	-0.5787166
212	0xbed0abe2	-0.40756136
213	0x3e84fe3c	0.25975215
214	0xbde8a06f	-0.11358725
215	0x3f60dd6b	0.87837857
216	0x3d91e288	0.071232855
217	0xbf070db1	-0.52755266
218	0xbcbb9c56	-0.022901695
219	0x3dbf5d3c	0.09343955
220	0x3ea358ee	0.31903785
221	0x3e1c9b21	0.15293552
222	0xbed47763	-0.41497335
223	0xbf503852	-0.8133594
224	0x3f01c6db	0.50694054
225	0xbe1904e9	-0.1494328
226	0x3ea07681	0.3134041
227	0xbc9fbe0c	-0.019499801
228	0xbe643887	-0.22287188
229	0x3d86a0b6	0.06573622
230	0xbe07eac2	-0.13273147
231	0x3e102c13	0.14079313
232	0xbdede50f	-0.11615955
233	0x3ec795b3	0.389814
234	0xbd01c987	-0.031686332
235	0x3e9ff269	0.31239632
236	0xbf03f9f6	-0.51553285
237	0xbf245aa7	-0.64200824
238	0x3e42578e	0.18978712
239	0x3e68eee6	0.22747383
240	0xba78020c	-0.0009460754
241	0xbe4a211c	-0.19739193
242	0xbeee2b2d	-0.46517316
243	0xbee334a2	-0.44376093
244	0xbe471323	-0.19440894
245	0xbf088775	-0.5333169
246	0xbd37675b	-0.0447763
247	0x3d95aa5a	0.073078826
248	0x3ee74bc1	0.45174983
249	0x3f4027eb	0.7506091
250	0xbe97083a	-0.29498464
251	0x3eaf9304	0.34291852
252	0x3d739f31	0.05947799
253	0xbe41a087	-0.18908893
254	0xbebdd03e	-0.3707294
255	0xbe96c92c	-0.29450357

lstm.weight_hh_l0 f4 [256, 64]
0	0x3e4712da	0.19440785
1	0x3e0c7053	0.13714723
2	0xbea7e3aa	-0.3279088
3	0xbe453433	-0.19258194
4	0xbe244da2	-0.1604524
5	0x3e29e5c6	0.16591558
6	0x3e7d6885	0.24746902
7	0x3d0aa2a8	0.033846527
8	0xbe6edb16	-0.23325762
9	0xbe4fa027	-0.20275937
10	0x3d7dfb8e	0.06200748
11	0x3eb29878	0.3488195
12	0x3ebf49d9	0.3736103
13	0xbe8b2a5a	-0.2718075
14	0x3c92fa68	0.017941669
15	0x3df1bfaf	0.11804139
16	0x3e2187d3	0.15774469
17	0x3c025def	0.007956966
18	0xbe28e291	-0.16492678
19	0x3d48e7f6	0.04904934
20	0x3e949fa0	0.29028034
21	0xbe56adaa	-0.20964685
22	0xbe1d1f14	-0.15343887
23	0xbe0e2a20	-0.13883257
24	0xbe2d26b0	-0.1690929
25	0xbe400efd	-0.18755718
26	0x3e8e5378	0.27798057
27	0x3ee56839	0.44806078
28	0xbe1b7395	-0.1518081
29	0xbd4a97be	-0.04946112
30	0x3bbc2ed7	0.0057428884
31	0xbe6ec171	-0.2331598
32	0x3df52ee4	0.11971834
33	0x3ec300f1	0.38086656
34	0x3d882e53	0.06649461
35	0x3cf9267a	0.030413855
36	0xbddb6f01	-0.10714532
37	0x3e007fcf	0.12548755
38	0x3ea950ca	0.3306945
39	0x3e6d60a6	0.231814
40	0xbedf8845	-0.43658653
41	0x3dbfbe26	0.0936244
42	0xbe98ae0a	-0.2982028
43	0xbf20bf4a	-0.62791884
44	0x3e6fa8ec	0.23404282
45	0xbe86f9c4	-0.2636243
46	0x3dc263fa	0.09491725
47	0xbc71e298	-0.014763497
48	0x3eae57c1	0.34051326
49	0xbe35958a	-0.17732826
50	0xbe13f3f2	-0.14448527
51	0x3e1437a1	0.14474346
52	0xbe687afd	-0.22703166
53	0xbe55d8aa	-0.20883432
54	0xbe4d40be	-0.20044228
55	0xbdf656a2	-0.12028243
56	0xbd037b43	-0.032099973
57	0xbf096deb	-0.53683347
58	0x3e4e76a4	0.20162445
59	0xbd7ae698	-0.061255068
60	0x3e10ae94	0.14129096
61	0x3dda5259	0.10660238
62	0x3ebf5661	0.3737059
63	0x3d5b824a	0.05359105
64	0x3e1d5620	0.15364885
65	0x3f2e9b2d	0.6820553
66	0x3c92de69	0.017928319
67	0x3d844f9d	0.064604975
68	0xbd779bdf	-0.060451385
69	0x3e0d86d5	0.13820966
70	0x3e696577	0.22792612
71	0xbcbf3d1d	-0.02334457
72	0xbca3c144	-0.019989617
73	0x3dab3d65	0.083613195
74	0xbe1dbe6e	-0.15404674
75	0x3d67873e	0.05652546
76	0xbd69d700	-0.057089806
77	0xbe26ade1	-0.16277267
78	0xbd826461	-0.06366802
79	0x3ba89083	0.0051441803
80	0x3e0bdc8e	0.13658354
81	0x3da37ff0	0.079833865
82	0xbf15e4c9	-0.58552223
83	0x3d072482	0.0329938
84	0xbe6deb23	-0.23234229
85	0xbf20fb05	-0.62883025
86	0xbdf92d77	-0.12166875
87	0xbee453ab	-0.44595084
88	0xbe71f986	-0.23630342
89	0xbe7cd4f0	-0.24690604
90	0xbea977f4	-0.3309933
91	0x3f111c26	0.56683576
92	0xbecc087b	-0.3985022
93	0xbd7efb84	-0.062251583
94	0xbeaca37c	-0.3371848
95	0xbcfd224c	-0.030900143
96	0xbe9d4de5	-0.3072349
97	0x3f1ecdff	0.62033075
98	0x3c7922c0	0.015206039
99	0xbe51eaca	-0.20499721
100	0xbef445a3	-0.4770938
101	0x3ed3d5dc	0.413741
102	0x3dc0daaa	0.09416707
103	0x3d67af16	0.05656346
104	0xbea52141	-0.32251933
105	0xbde92bcd	-0.113853075
106	0xbe8e013c	-0.27735317
107	0x3d1fe781	0.03903914
108	0xbe65442f	-0.22389291
109	0x3e019128	0.12653029
110	0xbeb94f83	-0.36193475
111	0xbc8e7639	-0.017390357
112	0x3ec2de37	0.3806016
113	0xbec34273	-0.38136634
114	0xbda4d074	-0.08047572
115	0xbd59799b	-0.053094488
116	0xbed00618	-0.4062965
117	0xbd701e7c	-0.058622822
118	0xbd457a37	-0.048212256
119	0x3dc82d2c	0.09774241
120	0xbdee31af	-0.1163057
121	0x3dbea115	0.09308068
122	0xbd920f24	-0.07131794
123	0xbeb50c94	-0.3536116
124	0xbebc0447	-0.36722013
125	0x3d8ba51a	0.068186
126	0x3c263959	0.010145509
127	0x3daee86f	0.08540427
128	0x3d370d30	0.04469031
129	0xbbd2719e	-0.0064222356
130	0xbe0f67fa	-0.14004508
131	0xbe1d6458	-0.1537031
132	0xbeb5d1ab	-0.35511526
133	0x3d821320	0.06351304
134	0x3d417d7c	0.04723881
135	0xbe608485	-0.21925552
136	0xbd90279a	-0.070388034
137	0xbe8bc4de	-0.27298635
138	0x3ec103e0	0.3769827
139	0x3de682d4	0.11255422
140	0x3e2b9845	0.16757305
141	0xbe19296e	-0.1495721
142	0x3e423da3	0.18968825
143	0xbd0e5bb3	-0.03475542
144	0xbe1b7db3	-0.15184669
145	0x3e896b9f	0.2683992
146	0xbe1cc5a8	-0.15309775
147	0x3cd4980a	0.025951404
148	0x3df55b3c	0.11980292
149	0xbe54b698	-0.20772779
150	0xbec70d9c	-0.3887757
151	0xbe1af0d1	-0.15130927
152	0x3e9cf89e	0.3065843
153	0x3cdb4c09	0.026769655
154	0x3e5c8659	0.21535625
155	0x3e019814	0.1265567
156	0x3cd1e65b	0.025622537
157	0xbe102116	-0.14075121
158	0xbc963bbc	-0.01833903
159	0x3e9600ec	0.29297578
160	0xbd591939	-0.05300257
161	0x3e5fb8cd	0.2184784
162	0xbe2f9a46	-0.17148694
163	0x3d30dac1	0.04317737
164	0xbee185e4	-0.44047463
165	0x3dfe3ea7	0.12414294
166	0xbca956a7	-0.020671202
167	0xbe0e0fd9	-0.13873233
168	0xbe8ffa90	-0.28120852
169	0xbe85f4f0	-0.26163435
170	0xbe85219d	-0.26002207
171	0xbe40c3f3	-0.18824749
172	0x3d82e93b	0.063921414
173	0x3dbfcd1f	0.093652956
174	0xbecf346e	-0.40469688
175	0xbca6e647	-0.020373477
176	0x3e2bcce3	0.16777377
177	0xbeb1e671	-0.34746125
178	0xbe641095	-0.2227195
179	0x3ebac997	0.36481926
180	0xbd8ce7c5	-0.06880144
181	0x3ea9592b	0.33075842
182	0xbe961f31	-0.29320672
183	0x3e4992ea	0.1968495
184	0x3dc15fc2	0.094420925
185	0xbe047b93	-0.12937765
186	0x3e007452	0.12544373
187	0x3d847320	0.06467271
188	0xbe65c6d6	-0.22439131
189	0xbe16e7d6	-0.14736876
190	0xbc8d61d7	-0.017258568
191	0x3d50d9ca	0.05098895
192	0x3e2a88d3	0.16653757
193	0xbd074b69	-0.0330309
194	0xbd9ba843	-0.07600453
195	0xbd8954d0	-0.0670563
196	0xbec8b4bd	-0.39200392
197	0x3e8500c9	0.25977162
198	0xbc46f7c9	-0.0121440375
199	0x3c212c5c	0.009837236
200	0xbe59c334	-0.2126587
201	0xbe0fa7a6	-0.14028797
202	0x3de1b84d	0.11021481
203	0x3e1b208c	0.15149134
204	0x3e9b674f	0.30352256
205	0xbd905efa	-0.07049365
206	0x3db86723	0.09004047
207	0x3d5d2d57	0.053998318
208	0xbe1c4162	-0.15259317
209	0x3eda277e	0.42608255
210	0xbe2ea913	-0.17056684
211	0xbd252713	-0.040320467
212	0x3d903fc3	0.070434116
213	0xbe34679e	-0.17617652
214	0xbd9da6e4	-0.076978475
215	0xbf0a0211	-0.53909403
216	0xbd3833dc	-0.044971332
217	0xbe275944	-0.16342646
218	0x3e3eb8b2	0.18625143
219	0x3e1bee30	0.1522758
220	0xbe6cbc7a	-0.23118773
221	0x3d80bf07	0.062864356
222	0x3dbcc8d7	0.09217995
223	0x3f0dd1c3	0.55398196
224	0xbeed10f5	-0.46302
225	0x3c4f74c2	0.012662115
226	0xbd74468d	-0.059637595
227	0x3dd121c3	0.10211518
228	0xbe733132	-0.23749235
229	0x3e9919e5	0.29902568
230	0x3e5ace12	0.21367672
231	0xbbe023f9	-0.006840226
232	0xbf0653ba	-0.52471507
233	0xbdbeedd3	-0.09322705
234	0xbdee67fe	-0.11640929
235	0xbea764c2	-0.3269406
236	0xbd33a905	-0.04386236
237	0x3d2ca8ab	0.04215304
238	0xbe78b725	-0.24288614
239	0xbb8d61ee	-0.0043146526
240	0x3eb3901f	0.35070893
241	0xbe98f6e0	-0.2987585
242	0xbd1aaa10	-0.03775984
243	0x3e3baa92	0.18326786
244	0x3da86052	0.08221497
245	0x3e3472fe	0.17621991
246	0xbe5d2fa5	-0.21600206
247	0x3d3389ca	0.043832578
248	0xbe7fc2bc	-0.24976629
249	0xbe10a935	-0.14127047
250	0x3da4ed5f	0.080530874
251	0xbe646956	-0.22305807
252	0xbe495b72	-0.1966379
253	0x3d3a55d6	0.045492016
254	0x3ce6b7cc	0.028163813
255	0x3de8b926	0.11363439

lstm.bias_ih_l0 f4 [256]
0	0x3ec9dc4a	0.3942588
1	0x3e6f5be1	0.23374893
2	0x3d80a6d4	0.0628182
3	0x3dbce88c	0.09224042
4	0x3d3f3f61	0.046691302
5	0xbd2dba7b	-0.04241417
6	0x3e6ce179	0.23132886
7	0x3e6989e8	0.22806513
8	0x3d584296	0.052797876
9	0xbde153db	-0.11002322
10	0xbe00c783	-0.12576108
11	0x3e02938c	0.12751597
12	0x3db0093b	0.085955106
13	0x3c31ca95	0.010851522
14	0xbd4b6feb	-0.04966728
15	0x3c1b0ea8	0.009463944
16	0x3e14379e	0.14474341
17	0xbced054a	-0.028933186
18	0x3d858bfa	0.06520839
19	0x3e3af0ee	0.1825597
20	0x3dc61b71	0.09673203
21	0x3dd72914	0.10505882
22	0x3e2e91e1	0.17047836
23	0xbd0a51f4	-0.033769563
24	0x3ea64167	0.32471773
25	0x3e552726	0.20815715
26	0x3dd26517	0.102731876
27	0x3e09af5b	0.13445799
28	0x3dd2a778	0.102858484
29	0xbcfaa51b	-0.030596307
30	0x3ebdbafd	0.37056723
31	0x3e42dc3a	0.19029322
32	0x3e2fb56e	0.17159054
33	0xbc013282	-0.007885577
34	0x3e31c678	0.17360866
35	0x3e85e172	0.26148564
36	0x3db68d84	0.08913711
37	0x3e09c47b	0.13453858
38	0xbe3c4c83	-0.18388562
39	0x3de2291a	0.11042996
40	0x3e9aa7cd	0.30206147
41	0x3d86a49e	0.06574367
42	0x3e122075	0.14270194
43	0x3dece0e1	0.1156633
44	0x3d0b1fea	0.033965982
45	0x3e3c8076	0.18408379
46	0xbe027a2b	-0.12741916
47	0x3e00d4a2	0.12581113
48	0x3df61cd4	0.12017217
49	0x3cfae8c1	0.030628564
50	0x3d663e4d	0.05621176
51	0x3dc68bed	0.096946575
52	0x3dcbcb05	0.09950832
53	0xbdb66d85	-0.08907608
54	0x3d91e32d	0.071234085
55	0xbde9a162	-0.114077345
56	0x3e97e62b	0.29667792
57	0x3cb255f0	0.021769494
58	0xbd73f9c5	-0.05956437
59	0x3d2680bc	0.040650114
60	0x3dc53e6d	0.096310474
61	0x3ce65e3d	0.028121108
62	0x3d8c560f	0.06852352
63	0x3c49a209	0.012306699
64	0xbdac14ff	-0.08402442
65	0x3c6f6d69	0.014613488
66	0xbd92a4c0	-0.0716033
67	0xbdbbec82	-0.0917597
68	0x3d80e248	0.0629316
69	0x3def82ac	0.116948456
70	0xbbbd3183	-0.0057737245
71	0x3c169a53	0.009192067
72	0x3dbf0c45	0.09328512
73	0xbcc7cd76	-0.024389964
74	0xbd633578	-0.055470914
75	0xbe5725c1	-0.21010496
76	0x3e39dba1	0.18150188
77	0xbe67eb11	-0.22648264
78	0x3dd7db9d	0.10539935
79	0x3ea3683f	0.3191547
80	0xbc7ed73c	-0.015554246
81	0xbd147e60	-0.036253333
82	0x3d852e16	0.06502931
83	0xbd4f6917	-0.05063733
84	0x3dd7a429	0.10529358
85	0x3dd9ffaa	0.10644467
86	0x3e07fbb4	0.13279611
87	0xbe37ac1d	-0.1793675
88	0xbdaaf358	-0.083471954
89	0x3dc78b98	0.09743422
90	0x3bbd1029	0.0057697487
91	0xbcf90b71	-0.030400964
92	0x3d88fcdb	0.06688853
93	0x3d81068f	0.06300079
94	0xbd94b6ad	-0.07261405
95	0x3d19ca1c	0.037546262
96	0xbcaeb11a	-0.021324683
97	0xbc8a974d	-0.016917849
98	0xbddab323	-0.10678699
99	0x3d9e2ce4	0.07723406
100	0x3e1cf103	0.15326314
101	0x3d6417c1	0.055686716
102	0x3e817a9e	0.25288862
103	0x3cdfd2a8	0.027322128
104	0x3c81daa4	0.015851326
105	0x3e15db15	0.14634354
106	0x3d01733b	0.031604033
107	0x3e847ac3	0.2587491
108	0x3e3bb3c2	0.18330291
109	0x3d4d1808	0.050071746
110	0x3e6f798a	0.23386207
111	0xbcdb542a	-0.026773531
112	0xbd7e9869	-0.06215707
113	0x3e41064b	0.18850057
114	0x3e3a3bdc	0.18186897
115	0xbc0c215e	-0.008552877
116	0xbba81492	-0.0051294053
117	0xbc5bf89a	-0.01342597
118	0x3ebd4b5f	0.36971566
119	0x3ccf41a8	0.025299862
120	0x3db79bdc	0.08965275
121	0x3e4fc9ea	0.20291868
122	0x3df759c4	0.12077668
123	0xbca26120	-0.019821703
124	0xbc9bba54	-0.019009747
125	0xbcaa2594	-0.020769872
126	0x3dfb0371	0.12256516
127	0xbdccbba5	-0.09996728
128	0xbdba98bf	-0.09111165
129	0x3d1aa8a3	0.03775848
130	0xbd1d1c28	-0.03835693
131	0xbc045d37	-0.008078865
132	0x3dd163a6	0.102240846
133	0xbdaca23f	-0.084293835
134	0xbde1a2bb	-0.110173665
135	0x3da2664c	0.07929668
136	0x3df90b1c	0.12160322
137	0x3e2eeb51	0.17081954
138	0xbdafb488	-0.085793555
139	0x3d5ca08c	0.053864047
140	0xbe36d61c	-0.17855114
141	0xbe016b54	-0.12638599
142	0xb8f02738	-0.00011451397
143	0x3de1456b	0.109995686
144	0x3daf4d91	0.085597165
145	0xbd515419	-0.051105592
146	0xbd129a61	-0.03579176
147	0xbdaea97b	-0.085284196
148	0xbd18a322	-0.03726495
149	0xbb398bf0	-0.002831217
150	0xbd85f8af	-0.06541573
151	0xbccc70c1	-0.024956109
152	0x3e1ba935	0.15201266
153	0xbd3e7085	-0.046494026
154	0x3c081d2d	0.008307737
155	0x3d8ea123	0.06964328
156	0x3d609a12	0.054834433
157	0x3d9da4f4	0.07697478
158	0xbe1cea1c	-0.1532368
159	0x3cff72cb	0.031182667
160	0xbd000dd8	-0.031263202
161	0xbd9dc73f	-0.07704019
162	0xbb295772	-0.0025839475
163	0x3df6ac4c	0.12044582
164	0x3dda49ff	0.10658645
165	0x3e1e05f2	0.15431955
166	0xbc6f1906	-0.014593368
167	0x3bc949fa	0.006142852
168	0xbd2d2c01	-0.042278294
169	0xbccd25ba	-0.025042403
170	0x3c4dcc9a	0.012560988
171	0x3e23a484	0.15980726
172	0xbd2f262e	-0.04276102
173	0x3e494e6b	0.1965882
174	0x3e10ad11	0.1412852
175	0x38a517e0	7.87226e-05
176	0xbd41b03d	-0.047287215
177	0xbdf64ab9	-0.12025971
178	0x3d193c9e	0.037411325
179	0x3ce1d445	0.027567038
180	0x3c8828d9	0.01662104
181	0xba394b64	-0.0007068424
182	0x3deb26c2	0.11482002
183	0xbd9e3d74	-0.07726565
184	0xbd6d6ffe	-0.057968132
185	0x3c89d645	0.016825804
186	0xbd9a4625	-0.0753291
187	0xbc8e145e	-0.017343696
188	0x3c553999	0.013014221
189	0x3deffbee	0.11717974
190	0xbc145890	-0.009054318
191	0x3da36859	0.07978887
192	0x3f1bc336	0.60844743
193	0x3eba3df7	0.363754
194	0x3e424275	0.18970664
195	0x3e8d7916	0.27631444
196	0x3e1603b6	0.14649853
197	0xbd1a44d2	-0.03766329
198	0x3ea819b0	0.32832098
199	0x3e32a512	0.17445782
200	0x3bcbd07b	0.006219921
201	0x3d846a0f	0.064655416
202	0xbd3cb39a	-0.04606972
203	0x3eb207ef	0.34771678
204	0x3d23b072	0.039963193
205	0x3df55397	0.11978834
206	0x3d3a22cd	0.045443345
207	0x3e0fef79	0.14056195
208	0x3e026531	0.12733914
209	0x3e34964c	0.17635459
210	0x3e5397fb	0.20663445
211	0x3e7a5060	0.24444723
212	0x3ce37128	0.027763918
213	0x3dd91114	0.105989605
214	0x3e89d32f	0.26918933
215	0x39835f46	0.0002505725
216	0x3ec5809d	0.38574687
217	0x3e2cebf9	0.16886891
218	0x3e58e11a	0.2117962
219	0x3e589b7b	0.21153061
220	0x3e43d794	0.19125205
221	0x3dc15c68	0.09441453
222	0x3df08666	0.117443845
223	0x3d3d260b	0.04617886
224	0x3e341623	0.1758657
225	0x3df6ccbf	0.12050771
226	0x3e3ffa2b	0.18747775
227	0x3d7610fd	0.060074795
228	0x3ec6d1df	0.38831994
229	0x3c8ec1fc	0.017426483
230	0x3d9572f4	0.07297316
231	0x3dfef44c	0.1244894
232	0x3e862163	0.26197347
233	0x3d6422f5	0.0556974
234	0x3db0e6f9	0.086378045
235	0x3e03c005	0.12866218
236	0x3de90c3c	0.11379287
237	0x3dd9b316	0.10629861
238	0x3c8820d4	0.016617216
239	0x3e4124c3	0.1886168
240	0x3dd770fa	0.105195954
241	0x3e33bb37	0.17551886
242	0xbe6594ce	-0.22420046
243	0x3e63f5d5	0.22261746
244	0x3df927d1	0.121657975
245	0xbd1ad4cf	-0.037800606
246	0x3dba1d1d	0.09087584
247	0x3df91d4c	0.12163791
248	0x3e7d9ff5	0.2476805
249	0x3dfdcfa8	0.12393123
250	0x3d97dc12	0.07415022
251	0x3e1e638f	0.15467666
252	0xbde1bb67	-0.11022072
253	0x3d1fced8	0.03901562
254	0x3e1ae587	0.1512662
255	0x3e601d0a	0.21886078

lstm.bias_hh_l0 f4 [256]
0	0x3efc5f8a	0.4929164
1	0x3d2a54b4	0.041584685
2	0x3db9a0cf	0.09063875
3	0x3e5eae37	0.21746145
4	0xbc23ee92	-0.01000561
5	0xbdd33fe5	-0.10314921
6	0x3e9e6774	0.30938303
7	0x3d927f7e	0.071532235
8	0xbe0cb6c9	-0.13741602
9	0x3ced5bb5	0.028974393
10	0x3d34e24e	0.044161133
11	0x3e0bcf85	0.13653381
12	0xbb08f816	-0.0020899824
13	0xbd902535	-0.07038347
14	0x3d8501be	0.06494473
15	0x3e2428b4	0.16031152
16	0x3e2e8f1c	0.1704678
17	0x3d6afea9	0.05737177
18	0xbcfc1b6e	-0.030774798
19	0x3d02d749	0.031943593
20	0x3c9f07eb	0.019412955
21	0x3e675505	0.22591026
22	0x3df84450	0.121224046
23	0xbd15cfc6	-0.0365751
24	0x3ea9dca1	0.3317614
25	0x3e83484c	0.25641096
26	0x3daf04cf	0.08545839
27	0x3e0a7631	0.13521649
28	0x3e8ee07d	0.27905646
29	0xbdb91bba	-0.090384915
30	0x3e9bd895	0.30438676
31	0x3e5e8f88	0.2173444
32	0xbc4685c0	-0.012116849
33	0x3e5fa32e	0.21839592
34	0x3d88ae59	0.06673879
35	0x3e769dea	0.24083677
36	0x3c7cd946	0.015432661
37	0x3e314a25	0.1731344
38	0x3c864ea6	0.016394924
39	0x3dc1e24c	0.09466991
40	0x3ea5be87	0.32371923
41	0x3ddeed38	0.1088509
42	0xbd9d9e15	-0.076961674
43	0x3e65dced	0.22447558
44	0x3c139951	0.009008721
45	0x3c6d3a77	0.014479271
46	0x3cbd992c	0.023144327
47	0x3e140f74	0.1445902
48	0x3ba4af56	0.0050257845
49	0xbc1d9ca9	-0.00961987
50	0x3d7bb825	0.06145491
51	0x3e34be59	0.17650737
52	0x3da40759	0.08009214
53	0xbd77591c	-0.060387716
54	0x3ddaa081	0.10675145
55	0xbe2b7f66	-0.16747817
56	0x3e78af3a	0.24285594
57	0x3d286a1e	0.041116826
58	0xbd55ca38	-0.052194804
59	0x3dd9e78b	0.106398664
60	0x3e852473	0.2600437
61	0xbdc0b132	-0.09408797
62	0x3de5247e	0.11188601
63	0x3e266ac8	0.16251671
64	0xbd522186	-0.0513015
65	0x3d8019bf	0.06254911
66	0xbcf5807a	-0.029968489
67	0xba53cb93	-0.0008079346
68	0xbd6282cd	-0.055300523
69	0x3dbfb729	0.09361107
70	0xbddbd502	-0.107339874
71	0x3de09d5b	0.10967513
72	0x3d1c9aa0	0.0382334
73	0x3d078fd2	0.033096142
74	0xbcc8264a	-0.02443232
75	0xbe355061	-0.17706443
76	0x3e77ce1f	0.24199723
77	0xbe02e407	-0.12782298
78	0x3d2a98f2	0.041649766
79	0x3e5418f0	0.20712638
80	0xbb7f2d32	-0.003893685
81	0xba2f6c3a	-0.0006691847
82	0xbcf2fa73	-0.02966044
83	0x3e1ca546	0.15297422
84	0x3e52b9a4	0.20578629
85	0x3e310c19	0.17289771
86	0x3d4fe73f	0.050757643
87	0xbe180ae3	-0.14847903
88	0xbda8aba8	-0.08235866
89	0xbdafd9da	-0.08586474
90	0xbd31340d	-0.04326253
91	0xbce5d0b4	-0.028053619
92	0x3db18733	0.08668365
93	0x3c946a30	0.01811704
94	0xbdec75ae	-0.11545883
95	0x3e4e3e77	0.20141016
96	0xbdcce82d	-0.100052215
97	0x3d89d407	0.06729894
98	0x3cac1bb7	0.02100931
99	0x3dc6c864	0.0970619
100	0x3e799b69	0.2437569
101	0xbc27b808	-0.010236748
102	0x3e58b0aa	0.21161142
103	0x3c988745	0.018619189
104	0xbc26bb28	-0.010176457
105	0xbc8592b6	-0.016305309
106	0x3e3fb68e	0.18721983
107	0x3e50d227	0.20392667
108	0x3dfb4120	0.12268281
109	0x3db4b20d	0.08823023
110	0x3e3f3af4	0.18674833
111	0xbdb8bb64	-0.09020117
112	0x3dcc114c	0.099642366
113	0x3e49aa73	0.19693927
114	0x3e436f9e	0.19085547
115	0xbb8685d0	-0.004105307
116	0xbcbca2d1	-0.023026856
117	0xbdf2def2	-0.1185893
118	0x3e74535e	0.23859927
119	0x3d23f9ea	0.04003326
120	0x3e453b00	0.19260788
121	0x3dc91730	0.09818876
122	0x3e4525e5	0.19252737
123	0xbccfbcb4	-0.025358535
124	0xbd9b6c0f	-0.0758897
125	0xbd9d3af4	-0.0767726
126	0x3db38acc	0.08766708
127	0xbde62012	-0.11236586
128	0xbc1b52e6	-0.009480214
129	0x3e246003	0.1605225
130	0x3e02e99a	0.12784424
131	0xbdc2aa34	-0.0950512
132	0x3d3677fc	0.04454802
133	0x3e141a5a	0.14463177
134	0xbd1f4e14	-0.03889282
135	0x3c0f37a9	0.008741298
136	0x3c153097	0.009105823
137	0x3b558f1b	0.0032586518
138	0x3d8c5592	0.06852259
139	0x3cc041db	0.023468902
140	0xbcee4303	-0.029084688
141	0xbdcc244b	-0.0996786
142	0xbd97010e	-0.07373248
143	0x3de509d3	0.111835144
144	0x3e029848	0.12753403
145	0xbc29f5bc	-0.010373529
146	0xbc8fb233	-0.017541027
147	0x3d0b8d0e	0.034070067
148	0x3d0f1bb9	0.034938548
149	0x3d8f4f9f	0.069976084
150	0x3d7a6213	0.061128687
151	0x3d80e5b1	0.0629381
152	0x3dae5f3e	0.0851426
153	0xbcfa6f1a	-0.030570555
154	0xbd8533a2	-0.06503989
155	0x3dc1b2b7	0.09457915
156	0xbdc2096a	-0.09474452
157	0x3dfb4362	0.122687116
158	0x3d900202	0.07031633
159	0x3df1c98e	0.11806022
160	0x3d98d552	0.074625626
161	0x3ce5d9d2	0.028057966
162	0xbe0163bb	-0.126357
163	0xbdd7682e	-0.105179176
164	0x3de7b75d	0.11314271
165	0x3dbe64f0	0.09296596
166	0xbd92b81d	-0.07164023
167	0xbe20329f	-0.1564431
168	0xbe3d72a2	-0.1850076
169	0x3cc5b79c	0.024135403
170	0xbb7755dc	-0.0037740385
171	0x3c0cc894	0.008592743
172	0xbe22dd93	-0.15904836
173	0xbc96bee8	-0.018401578
174	0x3d04ed4c	0.032452866
175	0x3d160cef	0.03663343
176	0xbd4eb10f	-0.050461825
177	0xbe031f06	-0.12804803
178	0xba5411b7	-0.0008089798
179	0xbd7abfb3	-0.061217975
180	0x3e0d216c	0.1378228
181	0x3baa561f	0.0051982547
182	0x3cc6f162	0.024285022
183	0xbdad7b84	-0.08470824
184	0xbe24118d	-0.1602232
185	0x3de4f029	0.111786194
186	0xbdb1eb3d	-0.08687446
187	0xbde3dd6b	-0.111262165
188	0xbdb9eaac	-0.09077963
189	0x3c9b0d7d	0.01892733
190	0x3b99927c	0.0046866518
191	0x3d67ffa8	0.056640297
192	0x3ef70bc8	0.48251176
193	0x3eae5105	0.34046188
194	0x3e8c84c1	0.27445033
195	0x3e82324d	0.25429
196	0x3dc527f1	0.09626759
197	0x3ae03ab2	0.0017107336
198	0x3e7cd7ab	0.24691646
199	0x3e8f7fdf	0.28027245
200	0x3de64ea8	0.11245471
201	0xbd87c399	-0.06629104
202	0x3c7da073	0.015480149
203	0x3f0e6a20	0.55630684
204	0x3e28f22f	0.16498636
205	0xbca7680b	-0.020435354
206	0x3e32b695	0.17452462
207	0x3e13a867	0.14419709
208	0xbc87e127	-0.016586853
209	0x3e0e0512	0.13869122
210	0x3e6fdc29	0.23423828
211	0x3e703d74	0.23460943
212	0xbe1f2a33	-0.15543441
213	0x3e77cae7	0.24198495
214	0x3d9b1b81	0.07573605
215	0xbcc75485	-0.024332294
216	0x3ecf3b6d	0.40475026
217	0x3e92581b	0.28582844
218	0x3e3e2ee8	0.18572581
219	0x3e36be91	0.17846133
220	0x3e6ea486	0.23304948
221	0xbdc752f4	-0.09732619
222	0x3e342ea9	0.17595924
223	0x3dc0ad09	0.09408004
224	0x3cfbaafe	0.030721184
225	0x3d9cf097	0.07663076
226	0x3d1d505f	0.038406726
227	0x3d359771	0.04433388
228	0x3e939011	0.2882085
229	0x3d8bb166	0.068209454
230	0x3c6c61e3	0.014427635
231	0x3d1e319b	0.038621526
232	0x3eacd96f	0.3375964
233	0xbe2c56b6	-0.16829953
234	0xbda6762b	-0.081280075
235	0x3d94ea8d	0.072712995
236	0x3e83c15c	0.2573346
237	0x3c7220c0	0.014778316
238	0xbd719b53	-0.05898602
239	0x3e0776b8	0.13228881
240	0x3d3eebf4	0.04661174
241	0x3d0d305c	0.034469947
242	0xbd77b795	-0.06047781
243	0x3e5f75bd	0.21822257
244	0x3de90cf7	0.11379426
245	0xbdcbebf3	-0.09957113
246	0x3e62fb47	0.22166167
247	0x3dc8bd55	0.09801737
248	0x3e8c34e6	0.27384108
249	0x3d4faf32	0.05070419
250	0xbdca39d0	-0.09874308
251	0x3dcc142c	0.09964785
252	0xbd43019a	-0.04760895
253	0x3d0eeca2	0.03489364
254	0x3dea4155	0.11438242
255	0x3e9853df	0.2975149

lstm.weight_ih_l1 f4 [256, 64]
0	0xbecec4ad	-0.40384427
1	0xbe1cc855	-0.15310796
2	0xbebb9f4b	-0.36644968
3	0xbdd5a09d	-0.10431025
4	0x3ee8cd26	0.45469016
5	0xbebeee9c	-0.3729142
6	0x3b754237	0.00374235
7	0xbd69eb5d	-0.057109226
8	0xbd4570a3	-0.048203122
9	0xbcf995cf	-0.030466942
10	0xbdcac84c	-0.09901485
11	0xbda0924e	-0.078404054
12	0xbe856a1d	-0.2605752
13	0xbd7d7be8	-0.061885744
14	0xbe14fd32	-0.14549711
15	0xbe1682c8	-0.14698327
16	0xbeb2698b	-0.34846148
17	0xbc55e081	-0.013054014
18	0xbdc66806	-0.0968781
19	0xbdee6adf	-0.11641478
20	0x3e7e758d	0.2484953
21	0x3e997bc2	0.29977232
22	0xbc751ef7	-0.014960996
23	0x3c0ae7fb	0.00847816
24	0x3e9740a7	0.29541513
25	0x3e20b3a4	0.15693527
26	0x3e85f353	0.26162204
27	0xbeec92e3	-0.46205816
28	0x3ea9af14	0.33141387
29	0xbe3abd50	-0.1823628
30	0x3e885bed	0.26632634
31	0x3ca82976	0.020527583
32	0xbcdbb55a	-0.026819874
33	0xbe154ae8	-0.14579356
34	0x3c4992d6	0.012303075
35	0x3dc0cc40	0.094139576
36	0xbcf9eb44	-0.030507691
37	0xbeb7051d	-0.3574609
38	0xbd5dac3c	-0.054119334
39	0xbbc9727a	-0.00614768
40	0x3d716f48	0.058944017
41	0xbe1f0e3c	-0.15532774
42	0x3e78a7be	0.24282739
43	0x3e26e942	0.16299918
44	0x3e294c41	0.16532995
45	0xbe18ffec	-0.14941376
46	0x3d4483db	0.04797731
47	0x3ea47bb2	0.32125622
48	0xbd25d5f2	-0.040487237
49	0x3df79692	0.12089266
50	0x3e2b3def	0.16722845
51	0x3e4933a2	0.19648603
52	0xbe057981	-0.13034631
53	0xbc8ed88e	-0.017437246
54	0xbe76528e	-0.2405493
55	0xbca383f8	-0.019960389
56	0x3e35fb88	0.17771733
57	0xbda7eb2a	-0.08199151
58	0xbe63a9a7	-0.22232686
59	0x3e59894a	0.21243778
60	0x3dcf0571	0.1010846
61	0xbea70a47	-0.32625028
62	0xbe17256d	-0.1476037
63	0x3e59f08e	0.2128317
64	0x3eb04669	0.3442872
65	0x3e8bc76f	0.27300593
66	0xbcc142ba	-0.023591388
67	0x3de1727b	0.110081635
68	0xbe7a4691	-0.24440981
69	0xbe5ee0ca	-0.21765438
70	0x3e673b1e	0.22581145
71	0x3ca91713	0.020640885
72	0xbe56c717	-0.20974384
73	0xbe096a72	-0.13419512
74	0xbe82cad9	-0.25545385
75	0x3e4aa778	0.19790447
76	0xbba0f1d6	-0.0049116416
77	0xbcef0133	-0.029175377
78	0x3dffccc4	0.12490228
79	0xbea17a7d	-0.31538764
80	0x3d82de2d	0.06390033
81	0x3e8b2c26	0.2718212
82	0xbc2b6457	-0.010460935
83	0x3dee5f40	0.11639261
84	0xbd85d7b6	-0.06535284
85	0xbe66a413	-0.22523527
86	0xbe12d79a	-0.14340058
87	0xbdd6f0d0	-0.1049515
88	0xbeef19c6	-0.4669935
89	0xbea51eb0	-0.32249975
90	0x3d873f69	0.066038914
91	0x3e0b3bea	0.13597074
92	0xbe0354be	-0.12825295
93	0xbdb8a872	-0.090165034
94	0xbee2592f	-0.44208667
95	0xbddfa9cf	-0.1092106
96	0xbdc20ce0	-0.09475112
97	0x3dbab210	0.09115994
98	0x3c0047e7	0.007829643
99	0x3cc9f3b8	0.024652347
100	0xbea3f21d	-0.32020655
101	0x3d800616	0.06251161
102	0x3dd19195	0.10232846
103	0x3c8e8d9c	0.017401509
104	0xbe81647e	-0.25271982
105	0x3df862fa	0.12128253
106	0x3dafde27	0.08587294
107	0x3e82bb21	0.25533393
108	0x3cb1e051	0.021713408
109	0x3e6ff09a	0.23431626
110	0xbe93f9bb	-0.28901467
111	0xbe8d06e9	-0.27544335
112	0xbd5af853	-0.053459477
113	0xbdd81348	-0.105505526
114	0xbd4d70ed	-0.050156523
115	0xbe1aefae	-0.15130493
116	0x3e3667dc	0.17813057
117	0x3ea119c6	0.31464976
118	0xbd522cab	-0.05131213
119	0x3ed73abb	0.42036995
120	0xbe688c89	-0.2270986
121	0xbe825e06	-0.2546236
122	0x3e7a0497	0.24415813
123	0x3d36c3e2	0.044620402
124	0xbeab14b9	-0.33414248
125	0xbe6c127a	-0.23053923
126	0x3d264b63	0.040599238
127	0xbd202414	-0.039096907
128	0xbd93b33d	-0.07211921
129	0x3f030e60	0.5119381
130	0x3e25fd15	0.16209824
131	0x3e41f83a	0.18942347
132	0x3dc65bbb	0.09685465
133	0x3db3c02b	0.087768875
134	0xbead80dd	-0.33887377
135	0x3e23dfdf	0.16003369
136	0x3e2d277b	0.16909592
137	0x3e43308b	0.19061486
138	0xbe3d0c3e	-0.18461701
139	0xbee7b253	-0.45253238
140	0xbeb5ca80	-0.35506058
141	0xbe4e123c	-0.20124143
142	0xbe7507d6	-0.2392877
143	0xbd2e9498	-0.04262218
144	0x3d9bb83b	0.076034985
145	0xbeaecb35	-0.3413941
146	0xbebdd0e1	-0.37073424
147	0x3df94a74	0.12172404
148	0xbeee6204	-0.46559155
149	0xbea1f635	-0.31633154
150	0xbdca3ebe	-0.098752484
151	0xbcde0627	-0.027102543
152	0x3df8bfb8	0.121459424
153	0x3d95802b	0.07299837
154	0xbe77e1e9	-0.24207272
155	0x3f01f4c0	0.50764084
156	0xbef8900f	-0.48547408
157	0x3edfc70d	0.4370655
158	0x3ecacb5a	0.3960827
159	0x3d9437d9	0.072372146
160	0xbea827d7	-0.32842895
161	0x3ee3f9a0	0.44526386
162	0xbe09cd21	-0.13457157
163	0xbefd87a6	-0.49517554
164	0xbddf335d	-0.10898469
165	0x3eab7ead	0.33495083
166	0xbdeeec2a	-0.116661385
167	0x3cdf2893	0.027241027
168	0xbd237942	-0.039910562
169	0xbdca64d3	-0.09882512
170	0xbe8ac704	-0.27104962
171	0xbe75f77f	-0.24020194
172	0xbec7dbe4	-0.3903495
173	0x3ebb25fb	0.36552414
174	0xbc64da20	-0.013968021
175	0x3e1d4f05	0.15362175
176	0x3d8f3910	0.06993306
177	0xbdc5c962	-0.09657551
178	0xbddaa062	-0.10675122
179	0xbc94da2f	-0.018170444
180	0xbe2909f0	-0.16507697
181	0xbd06f2b0	-0.03294629
182	0x3e23ae68	0.159845
183	0x3d7156ef	0.058920797
184	0xbe8bb87b	-0.27289185
185	0x3dba01a6	0.09082346
186	0xbe8576ef	-0.26067302
187	0xbe7dce44	-0.24785715
188	0x3da0bfda	0.07849093
189	0xbd45cd8d	-0.04829173
190	0xbda4fff4	-0.08056632
191	0x3e9f09ca	0.31062156
192	0x3c926b62	0.01787347
193	0xbe014be0	-0.126266
194	0x3defa7e1	0.11701942
195	0xbd3b30ce	-0.04570084
196	0xbd2992ca	-0.041399755
197	0x3b748ebe	0.0037316526
198	0xbe5d0be4	-0.21586567
199	0xbd912a05	-0.07088093
200	0x3dbfb42e	0.093605384
201	0x3ea9c10d	0.331551
202	0xbd93fa73	-0.07225504
203	0xbf0eef08	-0.5583348
204	0xbc83c5ce	-0.016085532
205	0xbe889754	-0.26677954
206	0xbcce5614	-0.02518753
207	0xbe90231b	-0.28151783
208	0x3dc02e84	0.09383872
209	0xbd7ae5f7	-0.061254468
210	0x3d549646	0.051901124
211	0x3e6ca8b5	0.23111232
212	0xbe08caae	-0.13358566
213	0x3da2ba75	0.0794572
214	0x3f13fc6b	0.57807034
215	0xbeaa58f1	-0.33270982
216	0x3e28e125	0.16492136
217	0xbdb0fc97	-0.08641928
218	0xbdca49c0	-0.09877348
219	0x3e1bce08	0.15215313
220	0x3e9b0aa5	0.3028156
221	0x3e62fa70	0.22165847
222	0x3e90e421	0.2829905
223	0x3e139931	0.14413907
224	0xbebddf4f	-0.37084433
225	0xbd41e3f5	-0.047336537
226	0xbe23897e	-0.15970418
227	0xbd368b06	-0.044566177
228	0x3db0995e	0.086230025
229	0xbd383cbf	-0.044979807
230	0xbd54ac35	-0.051922042
231	0xbde4fbac	-0.11180815
232	0x3d8e7542	0.06955959
233	0x3d780fb7	0.06056186
234	0xbdfe1083	-0.12405493
235	0x3d9250a8	0.0714429
236	0xbe1db675	-0.15401633
237	0x3eadb1f1	0.3392482
238	0xbe4e6671	-0.20156266
239	0x3ea7720a	0.32704192
240	0x3edec3e7	0.43508837
241	0xbecdaa6e	-0.4016909
242	0x3c9eaaf2	0.019368622
243	0xbed59ade	-0.41719717
244	0xbdf34794	-0.11878887
245	0x3da674e4	0.08127764
246	0x3e5f7168	0.21820605
247	0x3e82abe0	0.25521755
248	0xbe3ab424	-0.1823278
249	0x3da0a172	0.07843293
250	0xbe7bbfd1	-0.24584891
251	0xbda4d95a	-0.08049269
252	0x3e4e5190	0.20148301
253	0x3ebd6b15	0.3699576
254	0xbe95af6c	-0.292354
255	0x3e94fafd	0.2909774

lstm.weight_hh_l1 f4 [256, 64]
0	0x3e10f0be	0.14154336
1	0xbf0c2c48	-0.5475507
2	0xbdae1187	-0.08499437
3	0x3e733473	0.23750477
4	0xbe6cc9fb	-0.23123924
5	0x3cd2e504	0.025743969
6	0x3f054ba6	0.52068555
7	0xbd80b14c	-0.06283817
8	0xbe760a66	-0.24027404
9	0xbe6b110d	-0.22955723
10	0xbc206fd1	-0.009792284
11	0xbddf2f4a	-0.108976915
12	0x3de3b3f0	0.11118305
13	0xbde6c323	-0.11267688
14	0xbe19d588	-0.15022862
15	0xbdd6058f	-0.10450279
16	0x3f10f362	0.5662137
17	0xbdba2557	-0.09089153
18	0xbd6d2261	-0.057894114
19	0xbed2c937	-0.4116914
20	0xbcb9f981	-0.02270198
21	0x3e1bf0c8	0.1522857
22	0x3d1aa03a	0.03775046
23	0x3df5af55	0.119963326
24	0x3e329089	0.17437948
25	0x3d1a348e	0.037647776
26	0xbe849bd9	-0.25900152
27	0x3ea56b0b	0.3230823
28	0x3dc680c9	0.096925326
29	0x3ddbb7fe	0.10728453
30	0xbd4eea9c	-0.05051671
31	0xbe0914a5	-0.13386782
32	0x3dae1b58	0.08501309
33	0xbd8b3b03	-0.06798365
34	0xbdc61c9f	-0.09673428
35	0x3e2e3391	0.17011859
36	0x3cfcc390	0.03085497
37	0xbd575d3a	-0.052579142
38	0xbea806b1	-0.32817605
39	0xbf0cd208	-0.5500798
40	0xbe8d4606	-0.27592486
41	0xbd2ba61c	-0.04190646
42	0xbe56da12	-0.20981625
43	0xbe06cc9a	-0.13163987
44	0xbef6c72b	-0.48198828
45	0x3e4bc6d2	0.19900063
46	0xbc0aee94	-0.008479733
47	0xbeb9f7e4	-0.36321938
48	0xbea9d038	-0.3316667
49	0xba0de487	-0.00054127764
50	0x3d36e76c	0.044654295
51	0xbe8bc63e	-0.27299684
52	0x3dce2293	0.10065188
53	0xbd3c7308	-0.04600814
54	0xbd0bfe43	-0.03417803
55	0x3e6c18fe	0.23056409
56	0xbe3c034a	-0.1836063
57	0xbe0ab7c0	-0.13546658
58	0x3e4e6aaf	0.20157884
59	0xbf0e3d6e	-0.55562484
60	0xbe980f14	-0.29699004
61	0x3c85470e	0.016269233
62	0xbe6d0697	-0.23147045
63	0x3d722851	0.05912048
64	0x3e89e725	0.26934162
65	0xbe1ee690	-0.1551764
66	0xbe0d144f	-0.13777278
67	0x3e833ecc	0.25633848
68	0xbea4c825	-0.32183948
69	0x3d8ad020	0.06777978
70	0xbe453735	-0.19259341
71	0x3c447aba	0.011992151
72	0xbe0634cc	-0.13106078
73	0xbd0cda6b	-0.034387987
74	0xbce2b4f1	-0.02767417
75	0xbd8318f3	-0.06401243
76	0xbd7b6017	-0.061370935
77	0xbec6c896	-0.3882491
78	0xbe89428a	-0.26808578
79	0xbe45b18a	-0.19306007
80	0xbe0faaa6	-0.14029941
81	0x3e9cc7a9	0.3062108
82	0xbd1eb304	-0.03874494
83	0xbdcb590f	-0.09929096
84	0xbde69ad9	-0.112600036
85	0x3ee8c9d0	0.4546647
86	0xbecc83d7	-0.39944336
87	0xbeaa8407	-0.33303854
88	0x3e96df4f	0.29467246
89	0xbdfc2012	-0.123108044
90	0x3ca4a581	0.02009845
91	0x3cc5deea	0.024154145
92	0x3efe252e	0.4963774
93	0xbe5f2fb3	-0.2179554
94	0x3e7ab10b	0.24481599
95	0xbdb1cf94	-0.086821705
96	0xbe527692	-0.20553043
97	0xbe417eb5	-0.18895991
98	0x3d80b3be	0.06284283
99	0xbefc72a6	-0.4930622
100	0xbe06467b	-0.13112824
101	0xbe5dfda6	-0.2167879
102	0x3d9e2fcd	0.07723961
103	0x3ecd0e52	0.40049988
104	0xbeb0895f	-0.34479806
105	0xbb806ac8	-0.0039189793
106	0xbe1c2745	-0.15249355
107	0x3d91968e	0.07108794
108	0x3e83a0cb	0.25708613
109	0x3edc2dac	0.43003595
110	0x3ca9a333	0.020707702
111	0x3ee94749	0.455622
112	0x3f07a847	0.52991146
113	0x3c09e735	0.00841694
114	0x3e679dba	0.22618762
115	0x3d501872	0.050804563
116	0xbecb9928	-0.39765286
117	0x3ed1ccd3	0.4097658
118	0xbdbd6591	-0.09247888
119	0x3cb977ff	0.022640226
120	0x3e1b35f9	0.15157308
121	0xbca09ee6	-0.019607019
122	0xbd43a12b	-0.047761124
123	0x3eb89115	0.3604819
124	0xbd1297a9	-0.035789166
125	0x3e15e768	0.14639056
126	0xbe30718b	-0.17230813
127	0xbdb38306	-0.08765225
128	0x3d0fd8c1	0.035118822
129	0xbdff6acd	-0.124715425
130	0xbd255032	-0.040359683
131	0xbc352b51	-0.011057691
132	0x3ceb3ee5	0.028716514
133	0x3e726789	0.23672308
134	0xbe0df019	-0.13861121
135	0x3e0f08da	0.1396822
136	0x3c300211	0.01074268
137	0xbd234134	-0.039857104
138	0xbef296ce	-0.4738068
139	0xbdd53519	-0.10410518
140	0x3c4ac95d	0.01237711
141	0x3d312d90	0.043256342
142	0x3dfd9ebf	0.12383794
143	0xbbbfdcc2	-0.005855174
144	0xbe4932e7	-0.19648324
145	0x3eaf79cd	0.34272614
146	0xbe4b09d1	-0.19827963
147	0xbc353a5c	-0.011061277
148	0xbd8dd7cc	-0.069259256
149	0xbdde5d99	-0.10857696
150	0xbe0eb0c9	-0.13934626
151	0x3d2d366a	0.04228822
152	0x3d8b2523	0.06794193
153	0xba9dff05	-0.0012054151
154	0x3ea9e03e	0.33178896
155	0x3d0a5a53	0.033777546
156	0x3d617db4	0.05505152
157	0xbdae09b0	-0.084979415
158	0x3c873786	0.016505968
159	0x3dc24023	0.09484889
160	0xbe141408	-0.14460766
161	0x3d65658c	0.056005046
162	0xbdb0f034	-0.08639565
163	0xbe03e477	-0.12880121
164	0x3bc82370	0.00610774
165	0x3dce730a	0.10080536
166	0x3ec5987a	0.38592893
167	0xbced1e15	-0.028945008
168	0x3e8bf6a3	0.27336606
169	0xbe074bf9	-0.13212575
170	0x3e721cff	0.23643874
171	0x3e305ac4	0.17222124
172	0xbe013651	-0.12618376
173	0xbc55ddd3	-0.013053375
174	0xbc8b433e	-0.016999837
175	0x3e5e90ff	0.21734999
176	0x3e03f57b	0.12886612
177	0xbcd1be82	-0.025603537
178	0x3e1d2c39	0.15348901
179	0xbc935888	-0.01798655
180	0x3e501f6c	0.20324486
181	0xbc194959	-0.009355866
182	0xbe5699ee	-0.20957157
183	0xbc145245	-0.009052818
184	0x3e8c7403	0.2743226
185	0x3d310c62	0.0432247
186	0xbe298601	-0.16555025
187	0x3e357026	0.17718562
188	0xbe25ddc8	-0.16197884
189	0x3e4254e6	0.18977699
190	0x3e06169b	0.13094561
191	0xbd85984a	-0.065231875
192	0x3e836fce	0.25671238
193	0x3df607a7	0.12013178
194	0x3d482fa9	0.048873577
195	0xbe8f7c85	-0.28024688
196	0x38a96134	8.0766535e-05
197	0x3d259611	0.040426318
198	0x3b7e3184	0.0038786838
199	0x3dc3a716	0.095533535
200	0x3ebf3809	0.3734744
201	0x3ee60bff	0.44931027
202	0xbe9f64e2	-0.31131655
203	0xbdd848c5	-0.10560755
204	0xbeda32f7	-0.42617008
205	0xbeaab464	-0.33340752
206	0x3f0c4cb8	0.54804564
207	0x3de03dd7	0.10949295
208	0x3e6d862d	0.23195715
209	0xbc521be7	-0.012824035
210	0xbe3e1920	-0.18564272
211	0xbce43041	-0.02785504
212	0xbdbec15a	-0.09314223
213	0x3e79cb86	0.24394044
214	0x3f3ea0ad	0.7446392
215	0x3e632f6a	0.22186056
216	0xbda28c75	-0.07936946
217	0x3ce0f67d	0.027461285
218	0x3d9402be	0.072270855
219	0x3da2fd3a	0.079584554
220	0xbea0bc06	-0.3139345
221	0x3e6d2596	0.23158869
222	0xbc8e8d73	-0.017401433
223	0xbee6a1f1	-0.45045426
224	0xbe0345e7	-0.12819634
225	0xbea2d61a	-0.31803972
226	0xbc16fa6d	-0.00921498
227	0x3de43d54	0.1114451
228	0xbea91650	-0.33024836
229	0x3e35d205	0.17755897
230	0x3e789635	0.2427605
231	0x3df899b4	0.121386915
232	0x3f5cf53f	0.86311716
233	0x3eb9039e	0.36135572
234	0x3ebd1af8	0.36934638
235	0xbe2b7dae	-0.16747162
236	0xbe997699	-0.29973295
237	0x3e06e799	0.13174285
238	0x3ee64640	0.44975471
239	0xbdb37057	-0.087616615
240	0x3e24ebf8	0.1610564
241	0xbe1f15e5	-0.15535696
242	0x3cc8d64e	0.024516251
243	0x3d90458d	0.07044516
244	0x3d9456e3	0.07243135
245	0xbc96fc2d	-0.018430794
246	0x3d2f38cc	0.042778775
247	0x3ede8a92	0.43465096
248	0xbf06b8e4	-0.5262587
249	0xbe7850ee	-0.24249622
250	0x3c8756fe	0.016520973
251	0x3e27714a	0.1635181
252	0xbd605da4	-0.054776803
253	0xbd7eb2aa	-0.062182106
254	0x3c30338a	0.010754475
255	0xbe2cdc6d	-0.16880961

lstm.bias_ih_l1 f4 [256]
0	0x3e418334	0.18897706
1	0xbe2b7d2e	-0.16746971
2	0x3df02674	0.11726084
3	0x3f2e857d	0.68172437
4	0x3e840f80	0.25793076
5	0x3f0349fc	0.51284766
6	0x3e6d2398	0.23158109
7	0x3eb2596e	0.34833854
8	0x3c36f962	0.011167856
9	0x3e2b267a	0.16713896
10	0x3ea05466	0.3131439
11	0x3e027cca	0.12742916
12	0x3f151538	0.582355
13	0x3e7b1687	0.24520312
14	0x3e4fdfc0	0.20300198
15	0x3dd6683d	0.104691006
16	0x3e9e3dec	0.30906618
17	0xbd48a4b9	-0.048985217
18	0x3ea7a01b	0.32739338
19	0x3ec75d04	0.38938153
20	0xbbd2669e	-0.0064209243
21	0x3e61c5ff	0.22048186
22	0x3f190e24	0.597872
23	0x3e64b4a4	0.22334534
24	0x3e95d2b2	0.2926231
25	0x3e677032	0.22601393
26	0x3f3da23e	0.74075687
27	0x3dbf49d9	0.09340257
28	0x3e85f70f	0.26165053
29	0x3eaccc97	0.3374984
30	0x3eb13faa	0.34618884
31	0x3e900511	0.28128865
32	0x3dd4d64a	0.10392435
33	0xbd39e3fe	-0.045383446
34	0x3e9479cc	0.28999174
35	0x3e0000fd	0.12500377
36	0x3e85c7c0	0.2612896
37	0x3ec890e5	0.39173046
38	0x3ec4e8a4	0.3845874
39	0x3e26b1c9	0.16278757
40	0x3e97a45d	0.29617587
41	0x3e176d0d	0.14787693
42	0x3e3dddb1	0.185416
43	0x3ecbb984	0.39789975
44	0x3e31d161	0.17365028
45	0x3e33f3c0	0.17573452
46	0x3e94fbae	0.29098266
47	0x3eb012e4	0.34389412
48	0x3dbec7e4	0.0931547
49	0x3eb931fd	0.3617095
50	0x3e6d43b0	0.23170352
51	0x3eb9051f	0.3613672
52	0x3e79f529	0.24409927
53	0x3e96966a	0.29411632
54	0x3ea3e3a1	0.32009605
55	0x3e56e2b4	0.20984918
56	0x3cf9fab1	0.030515047
57	0x3ef29756	0.47381085
58	0x3e28dca6	0.1649042
59	0x3e8d4430	0.27591085
60	0x3ce264a6	0.027635884
61	0x3e7e12e7	0.24811898
62	0x3f187d21	0.5956593
63	0x3e565ba7	0.209334
64	0x3e2cf4ca	0.16890255
65	0xbd847b7f	-0.064688675
66	0x3eb040f6	0.3442456
67	0xbd1a0669	-0.03760377
68	0x3dbbcb0e	0.09169589
69	0x3e1d997d	0.15390582
70	0x3e8a7197	0.27039787
71	0xbec902df	-0.39260003
72	0x3e3f12af	0.18659471
73	0x3d97df5e	0.07415651
74	0xbdcd9f9d	-0.100402094
75	0xbd534b3b	-0.051585417
76	0x3e4c22e5	0.19935186
77	0x3e867d8a	0.26267654
78	0x3e5768f4	0.2103613
79	0x3dba184a	0.09086664
80	0xbc10f626	-0.008847749
81	0x3d3b207d	0.04568528
82	0x3d1bacc8	0.038006574
83	0x3d47cba1	0.04877818
84	0x3e4f4390	0.20240617
85	0x3e51cdbc	0.20488638
86	0xbea60216	-0.32423466
87	0x3c558b0e	0.0130336415
88	0x3da6072b	0.08106836
89	0xbdc094b1	-0.09403361
90	0x3bc6588a	0.006053035
91	0x3e31f490	0.1737845
92	0x3e14d385	0.14533813
93	0x3cfb95c4	0.030711062
94	0x3b9606b0	0.004578434
95	0x3e8b70cc	0.27234495
96	0x3e80920a	0.2511142
97	0x3e955b83	0.2917138
98	0xbd994cd9	-0.07485361
99	0x3e2e79b1	0.17038609
100	0x3e4d1f0f	0.20031379
101	0xbe2892f0	-0.16462302
102	0xbda1d928	-0.079027474
103	0x3e93a26b	0.28834853
104	0x3de54e4c	0.111965746
105	0x3d69f2d2	0.057116337
106	0x3e813958	0.25239062
107	0x3d5a62e3	0.053316962
108	0x3e166980	0.14688683
109	0xbdc5175b	-0.09623595
110	0x3bbd3260	0.0057738274
111	0x3d9a7fe0	0.075439215
112	0x3e6cab18	0.23112142
113	0x3be603b0	0.0070194826
114	0x3e90fb8a	0.2831691
115	0x3e290917	0.16507374
116	0x3d61d9f5	0.0551395
117	0x3b430924	0.0029760087
118	0x3e0c77f0	0.13717628
119	0x3dec3cd4	0.115350395
120	0x3db17058	0.08664006
121	0xbe210a3b	-0.15726559
122	0x3e07779f	0.13229226
123	0xbe1b447a	-0.1516284
124	0x3e718805	0.23587044
125	0xbb3ddd2d	-0.0028970942
126	0xbe6643e0	-0.2248683
127	0x3c424bb1	0.011858867
128	0xbd8c3eaf	-0.068478934
129	0xbd7a1a68	-0.06106034
130	0x3e30d901	0.1727028
131	0xbdb06bdf	-0.08614325
132	0x3dcd414d	0.10022221
133	0xbdae38f6	-0.08506958
134	0x3d5856f7	0.05281731
135	0x3d0a60d8	0.033783764
136	0x3d18d3bc	0.0373113
137	0x3dd2a885	0.10286049
138	0x3e0a2d45	0.13493831
139	0x3de6b857	0.11265629
140	0x3d955023	0.072906755
141	0xbcee34f9	-0.029077994
142	0x3e039d69	0.12853016
143	0xbdbcc57f	-0.09217357
144	0x3d072658	0.03299555
145	0xbe05b5d5	-0.13057645
146	0xbd451d28	-0.04812351
147	0x3dc1fddc	0.09472248
148	0x3d2a3640	0.041555643
149	0x3e0078e9	0.12546124
150	0x3e076127	0.13220654
151	0x3dd4a0c3	0.10382225
152	0xbe118d2e	-0.14214012
153	0xbe44d1b8	-0.19220626
154	0x3cd0468d	0.025424266
155	0x3d801135	0.06253282
156	0x3e2d1dc6	0.16905889
157	0x3cf75251	0.030190619
158	0x3d8c4f9e	0.06851123
159	0xbdcf5ae9	-0.101247616
160	0x3e08c92c	0.13357991
161	0x3e0a47c3	0.13503937
162	0xbd935999	-0.07194824
163	0xbcd34f3b	-0.025794616
164	0xbd8e725f	-0.06955408
165	0x3cd9dbd8	0.026594087
166	0x3daf34d7	0.08555
167	0xbdf34a6d	-0.1187943
168	0x3d5f6135	0.054536063
169	0xbdb2a2b3	-0.08722439
170	0x3db218ae	0.086961135
171	0x3ca2ccb8	0.019873008
172	0x3c216ceb	0.009852628
173	0x3ca41f92	0.020034585
174	0x3da3f55b	0.08005782
175	0xbdebbbed	-0.115104534
176	0xbd97047f	-0.073739044
177	0xbe136c00	-0.14396667
178	0x3dd462fb	0.103704415
179	0xbb96beb9	-0.0046003726
180	0x3e3e5f25	0.18590982
181	0xbdcd2120	-0.10016084
182	0xbe0648bb	-0.13113682
183	0x3e5c4bc5	0.21513279
184	0x3e13f7cd	0.14449997
185	0xbd3e83dc	-0.04651247
186	0x3de7aedb	0.11312648
187	0x3ccef9a1	0.025265517
188	0x3d88eb29	0.06685478
189	0xbd33e93b	-0.043923598
190	0x3d5a1f95	0.053252775
191	0x3dd0d906	0.10197644
192	0x3e96c88c	0.2944988
193	0x3d41326b	0.047167223
194	0x3e67c98e	0.22635481
195	0x3e3b42a6	0.18287143
196	0xbbdb96c3	-0.006701322
197	0x3f3bacee	0.73310745
198	0x3d67b399	0.056567762
199	0x3ec69cd5	0.38791528
200	0x3d7fe308	0.062472373
201	0x3e657039	0.22406091
202	0x3ea3193c	0.3185519
203	0x3e94baba	0.2904871
204	0x3ebe4e02	0.3716889
205	0x3e01271f	0.1261258
206	0x3f0a2915	0.53968936
207	0x3dce5a3b	0.10075804
208	0x3e7715e9	0.24129452
209	0x3d0fea8a	0.035135783
210	0x3ed5605b	0.41675076
211	0x3df6bacc	0.120473474
212	0x3df7b606	0.12095265
213	0x3ec81f21	0.3908625
214	0x3ecd7c3b	0.40133843
215	0x3e57dd82	0.21080592
216	0x3e7f0d11	0.24907328
217	0x3ea8e288	0.3298533
218	0x3f24f666	0.64438474
219	0x3e46625d	0.1937346
220	0x3eb0834a	0.34475166
221	0x3eb2ba5e	0.34907812
222	0x3e96f645	0.29484764
223	0x3e507496	0.20356974
224	0x3dcb46af	0.09925591
225	0x3e9f7668	0.31145024
226	0x3ecbe93b	0.39826378
227	0x3e5a972f	0.21346734
228	0x3e7572cb	0.23969571
229	0x3e9ca54a	0.30594856
230	0x3ecd089b	0.40045628
231	0x3dc8d77d	0.09806726
232	0x3ea5254b	0.32255015
233	0x3e71ca47	0.23612319
234	0x3e61c2eb	0.22047012
235	0x3ece6de1	0.40318206
236	0x3eaa956b	0.33317122
237	0x3e3995e9	0.18123592
238	0x3e0ffb42	0.14060691
239	0x3e590a7d	0.21195407
240	0x3e352893	0.17691259
241	0x3ea184ca	0.31546623
242	0x3ea203b6	0.31643456
243	0x3e2f85fe	0.17140958
244	0x3e44d17f	0.19220541
245	0x3e1d095b	0.153356
246	0x3eaf31ea	0.3421777
247	0x3ebaf5c8	0.3651564
248	0x3dd543d2	0.10413326
249	0x3e0c6687	0.13710986
250	0x3dee6794	0.1164085
251	0x3e3c1012	0.18365505
252	0x3e70b75a	0.23507443
253	0x3ecb947d	0.39761725
254	0x3ee8ed79	0.45493677
255	0x3e3064b0	0.17225909
